src/temp/mlp_checkpoint.pth.tar (torch, 68914 bytes, 22 tensors)

classifier.layer0.weight f4 [56, 25]
000000 b2 89 20 bd f4 30 14 3e f2 3f 94 be c6 1a 90 bd
       -0.039193816 0.14471799 -0.28955036 -0.07036357
000010 3c c7 97 ba d3 60 d6 3a 5e f8 ef bd 42 89 49 3e
       -0.0011579762 0.001635576 -0.11717294 0.19681266
000020 74 a7 66 bd 81 02 42 3d 4f b6 d0 3d 71 29 1b 3c
       -0.05631204 0.04736567 0.101910226 0.00947033
000030 c8 ac 35 be c5 3f 49 be 6b d3 39 be eb 11 c4 3c
       -0.17741692 -0.19653232 -0.18147056 0.023934325
000040 95 63 3c 3e 35 4a 0c 3e ac 73 e3 bd fd 9b 53 be
       0.18397363 0.13700183 -0.11106047 -0.20664974
000050 bc f4 82 3d a3 83 eb 3d 4c 30 6f bd 3f 3f b0 3d
       0.06394336 0.11499717 -0.05839567 0.08605813
000060 d1 6e 16 bd 27 67 69 3d b3 88 14 3e ec 01 75 be
       -0.036726777 0.05698314 0.14505272 -0.23926514
000070 e0 50 90 be d8 95 15 bd e2 9e 99 3c 47 7f e2 3d
       -0.28186703 -0.036519855 0.018752519 0.110594325
000080 89 a6 34 be ec 98 38 bd 87 9d c2 bc e8 6a 72 bd
       -0.17641653 -0.045067713 -0.023756756 -0.059183985
000090 64 c9 1a be 86 2c 78 3d f7 25 b9 3d d2 be b9 bd
       -0.15115887 0.060589336 0.09040444 -0.09069599
0000a0 56 53 89 bd e9 a3 f4 bd 65 39 c4 3d d6 51 74 be
       -0.06705348 -0.11945326 0.0958126 -0.23859343
0000b0 05 e4 3e be 52 ff a3 be 9f 19 3c 3e 92 3c 07 3e
       -0.1864167 -0.3203073 0.18369149 0.132067
0000c0 8d 3b 7f 3d 58 18 a5 3c 1a 23 8e 3c 45 f3 9d 3e
       0.06231265 0.02015321 0.017350722 0.30849662
0000d0 8e 75 37 3e 4f 9e cd 3d 46 8e 84 3d 14 ea 51 be
       0.17915937 0.100399606 0.06472449 -0.2049945
0000e0 19 ae 41 3d e5 9b a3 bd 55 7f 5a be 07 4d 14 be
       0.047285173 -0.07988719 -0.21337636 -0.14482509
0000f0 31 56 55 3c a9 87 d1 3a e9 41 1c be 95 32 91 bc
       0.013021038 0.0015985864 -0.15259518 -0.017724315
000100 76 99 68 3e 9b cc 3c be 22 4f 0d 3e 60 97 c6 3d
       0.2271479 -0.18437426 0.13799718 0.09696841
000110 61 1b 1f 3d 00 c7 1c 3e 6e a4 71 be b1 89 5d 3d
       0.03884447 0.15310287 -0.23597881 0.05408639
000120 aa a7 69 bc 44 a4 e5 3d b5 f0 89 3c 8a ea fd 3d
       -0.014261166 0.11212972 0.01683841 0.123982504
000130 71 b3 bb 3d 3d 2e 0f be a0 71 ff bd d3 23 f4 bd
       0.09165085 -0.13982482 -0.12472844 -0.119208954
000140 0c e8 31 be 80 30 98 3d fa 4f 3f 3e b2 c1 6f be
       -0.17373675 0.07431126 0.18682852 -0.23413733
000150 6d 11 91 3c 41 41 a5 bd 2c 38 c8 bc c9 7f 61 bd
       0.017708505 -0.08069087 -0.024440847 -0.055053506
000160 d9 bd 63 3d 4c d5 8c be 79 2e 14 3d 56 a6 21 3d
       0.055600975 -0.27506483 0.036177132 0.03946527
000170 8d 7b 9d 3e c7 24 00 3e 49 1d e2 bd 0c 58 90 be
       0.30758324 0.1251403 -0.11040742 -0.28192174
000180 d1 b5 f7 3c 0e b7 2e 3a a0 69 78 bd 9d 9b ca bd
       0.030238064 0.00066648505 -0.060647607 -0.09892962
000190 9b a3 cc 3d df f2 62 3e 8d d1 51 bc 70 24 87 3d
       0.09992143 0.2216296 -0.012806308 0.06598747
0001a0 3d 54 24 be f9 3d 3c 3c 59 7c af bd a1 f2 9d bc
       -0.1604776 0.011489385 -0.08568639 -0.019280734
0001b0 e7 36 15 be fa f3 aa bd b0 1d 19 be db 06 28 3d
       -0.14571725 -0.08347316 -0.14952731 0.041022163
0001c0 31 93 d2 bd f5 49 58 3e 45 70 dd 3d c1 77 82 be
       -0.10281981 0.21121962 0.10812429 -0.2548199
0001d0 df 26 93 bd 0c 58 f3 3d 2c 34 08 3e eb 52 b9 3d
       -0.071851484 0.11882028 0.13301152 0.090490185
0001e0 7c aa 27 3e 81 bf f2 bd d4 f7 8d be 72 13 90 3d
       0.16373628 -0.11852933 -0.2772814 0.07034959
0001f0 0e cc 36 be cc a9 b6 bd 5d 54 a2 bd 77 8a db bd
       -0.17851278 -0.08919105 -0.07926247 -0.107197694
000200 98 c4 11 bd 1e 73 8a bd 62 c8 55 bd d5 0d e1 3b
       -0.035587877 -0.06760238 -0.052193053 0.006868104
000210 6f 84 3c be b2 01 33 3d 02 03 26 3e 94 71 8b bd
       -0.18409894 0.04370279 0.16212085 -0.06808773
000220 ad b0 30 bd e3 89 bf 3c 20 5c d9 3d e3 75 60 3e
       -0.04313724 0.02338118 0.106132746 0.2191997
000230 0c da a0 3d 51 14 24 3e f7 68 a5 3d 2a 34 88 bd
       0.07854089 0.16023375 0.08076661 -0.066505745
000240 7d c9 0c be 01 dc 94 be 43 6c 9c 3e 03 a7 bb 3d
       -0.13748737 -0.290741 0.30551347 0.09162714
000250 1d ba b4 3c ac 41 2c be 84 6a 3f be 14 53 2c be
       0.022061402 -0.16821927 -0.18692976 -0.16828567
000260 5f df fa 3c 96 85 53 3e c0 96 15 3e cd 65 34 be
       0.03062409 0.20656428 0.14608288 -0.17616959
000270 11 8b 4d 3e 1b c4 45 be 4d 5d af bb 67 7d 46 bd
       0.20072581 -0.1931309 -0.0053516985 -0.048459437
000280 3a 0d 87 3d 2d a4 15 3c 0f 44 34 be 06 d2 06 be
       0.0659432 0.009133381 -0.17604087 -0.13166055
000290 d4 36 dd 3d 3a 41 e5 3c a2 a3 50 3d f1 64 81 3d
       0.10801473 0.027985204 0.050937302 0.06318081
0002a0 1a 93 76 bd c1 3a 0f 3d 8b 7e 7e 3e f1 d6 d2 bd
       -0.06019888 0.03496814 0.2485296 -0.10294903
0002b0 b6 cc 85 3e 3f 4b f5 bb 98 fb 7d be 57 fb 84 3e
       0.26132745 -0.0074857767 -0.24803007 0.25973007
0002c0 8e 3f 20 be d7 ec 41 be 6d be 1a 3e bc 87 aa bd
       -0.15649244 -0.18938003 0.15111704 -0.083266705
0002d0 fb 44 8a bd 46 2f 4b bd 0c 8b a9 3d 77 b8 ec 3d
       -0.06751438 -0.04960563 0.08278474 0.115586214
0002e0 7f 4a ed 3d 88 f7 04 3e eb 0c a5 3c cd 1a 83 3b
       0.115864746 0.1298505 0.020147761 0.0040009976
0002f0 c5 50 1b be b5 c0 81 3e 80 4e 5c 3e 84 bf 68 3e
       -0.1516753 0.25342336 0.2151432 0.22729307
000300 7b 85 04 be 27 e8 a9 3c 14 b9 7f bc e0 86 19 3d
       -0.12941544 0.020740582 -0.015608091 0.037482142
000310 bf 25 1c 3c d6 31 56 3d c1 75 aa bd 0c 85 63 bc
       0.009530484 0.05229362 -0.08323241 -0.013886701
000320 e1 30 6e 3d 7e 8c a1 3d 70 8c 11 be 80 bd 82 be
       0.058152083 0.07888125 -0.14213729 -0.25535202
000330 df ae e2 bd 50 cc 2a 3d 1b 96 08 bd 07 9c 5a 3e
       -0.1106851 0.041698754 -0.033346277 0.21348582
000340 b5 6e de 3c b9 39 2a 3d d9 7c a0 3c f2 38 18 bd
       0.027152399 0.041558955 0.019590782 -0.037163682
000350 f7 97 54 3d 52 68 72 be 59 4a 81 bd b4 c3 16 3d
       0.051902737 -0.23672608 -0.06313009 0.03680773
000360 00 ae 87 be 32 61 02 be 05 52 0c 3d 46 fd fa bd
       -0.2649994 -0.1273239 0.034257907 -0.12255339
000370 9b f1 0a be 2c 4e 4a 3e 23 a7 34 3e 7c 40 6a bc
       -0.13568728 0.19756383 0.17641883 -0.014297601
000380 0a 2a 82 be d4 0d 8e 3d 95 cb e6 bd d3 3b 9d 3c
       -0.25422698 0.06936231 -0.11269299 0.019193565
000390 75 8b fa bd f9 5d f1 bc ef bc 69 bd 42 ff 1b 3e
       -0.122336306 -0.029463755 -0.057064947 0.15234092
0003a0 3d 14 b5 3c 74 02 3a 3e a1 bd f8 3d 2c 5c fd bd
       0.022104377 0.18164998 0.12145544 -0.12371096
0003b0 80 e2 34 35 0f 2b 14 be 73 49 1a bd d7 de 84 3c
       6.7384826e-07 -0.1446955 -0.037667703 0.01621954
0003c0 a7 02 63 bd bc 25 32 3e b2 e5 84 bc 30 f3 84 bc
       -0.05542245 0.17397207 -0.016222809 -0.016229242
0003d0 0b 6d 66 3c 42 e9 d0 be eb 3d ad 3e d7 a9 77 bd
       0.014064084 -0.40802962 0.33836302 -0.060464706
0003e0 87 62 62 3d be 75 18 bd 74 a4 66 be 0e 96 16 3e
       0.055269744 -0.037221663 -0.22523671 0.14705679
0003f0 5c b7 81 3d 7b 49 81 3d 38 dd 75 bd c3 a9 52 bb
       0.06333801 0.063128434 -0.060025424 -0.0032144643

classifier.layer0.bias f4 [56]
000000 d4 94 37 35 6c dc b1 b7 09 c2 86 37 20 92 36 35
       6.8389386e-07 -2.1202686e-05 1.60644e-05 6.8012923e-07
000010 24 1e 6e 36 e5 4e de b6 b0 8d 6a 37 b4 83 46 b6
       3.5482308e-06 -6.6253e-06 1.3980476e-05 -2.958096e-06
000020 96 e7 de b6 9d 0c d9 b6 e5 0a d3 b6 d2 28 19 b6
       -6.6430757e-06 -6.4685723e-06 -6.2895583e-06 -2.2822537e-06
000030 63 09 b4 37 65 35 e5 b7 ed 6b 37 b8 6c f6 c2 b6
       2.1462043e-05 -2.7323791e-05 -4.3731114e-05 -5.810338e-06
000040 67 58 8a b7 c2 48 17 b8 8f 9b af 37 30 76 09 b4
       -1.6492048e-05 -3.6068966e-05 2.0934063e-05 -1.2802116e-07
000050 16 c3 6f b6 e7 41 c4 36 0c 13 41 37 71 05 51 37
       -3.572733e-06 5.8489272e-06 1.1508131e-05 1.2458638e-05
000060 7b a4 0c b8 70 ec de 36 2d fc 84 37 fb 84 58 37
       -3.3531785e-05 6.6436405e-06 1.5853055e-05 1.2905565e-05
000070 88 a9 f2 36 7d 94 92 36 26 71 96 37 50 c6 01 39
       7.231898e-06 4.3684254e-06 1.7934082e-05 0.00012376276
000080 7a 27 9b 37 72 7e 0f b7 50 3c 23 b7 ce 42 86 b7
       1.8495823e-05 -8.552905e-06 -9.7296e-06 -1.6005153e-05
000090 79 d5 3b 36 a5 5b 7f b7 08 fe c1 37 18 de 0c 38
       2.798943e-06 -1.5220522e-05 2.3125685e-05 3.3585442e-05
0000a0 b2 1b 48 37 8a 14 6d b6 f5 62 eb 36 3f 11 ca 37
       1.1927377e-05 -3.5327707e-06 7.015066e-06 2.4088307e-05
0000b0 6c 19 86 36 d1 9b 53 37 d4 24 74 b7 72 dc 39 b6
       3.9964707e-06 1.2612859e-05 -1.4552108e-05 -2.7695464e-06
0000c0 b5 57 cc b4 f4 cc 13 b8 c4 93 c9 37 ee ab a2 b7
       -3.8061776e-07 -3.523841e-05 2.4029876e-05 -1.9391966e-05
0000d0 60 ce 77 37 60 79 6c 36 94 38 60 37 ff 4a f1 b6
       1.4770398e-05 3.523739e-06 1.3364614e-05 -7.1910904e-06

classifier.layer0_normal.running_mean f4 [56]
000000 60 32 21 be c6 d3 18 bf d1 17 b0 3e 58 b7 db be
       -0.15741873 -0.5969814 0.3439317 -0.42913318
000010 9d 8a 2a be 92 29 45 bd fe 5a bc 3d 53 c5 b9 3e
       -0.1665444 -0.048135348 0.09197043 0.3628336
000020 75 c3 b2 be 42 5f 9c 3c b3 5f 2b be 60 8d cc 3d
       -0.34914747 0.019088391 -0.16735725 0.09987903
000030 c9 53 c0 3d 4d dd 49 3f dd bb 16 bd 92 62 70 3f
       0.09390981 0.78853303 -0.036800254 0.93900406
000040 33 bc 05 3d f5 af 24 bf 8a 6e f4 3e c8 73 76 3e
       0.032650184 -0.6433099 0.47740585 0.24067605
000050 bc 37 87 3e 3a 6a 2b be 3e 8d 15 3e 59 6c 8a 3e
       0.2640971 -0.16739741 0.14604661 0.27035788
000060 13 da 87 3d 32 25 92 bd a3 e3 b2 bd dc b1 30 3e
       0.06633391 -0.07136001 -0.087348245 0.17255348
000070 3d 10 11 3e 90 7b b5 3c 13 de b9 3e ec 19 f7 3c
       0.1416635 0.022153646 0.36302242 0.030163728
000080 6a 7e 03 3f 06 73 1d be 87 b5 9a be 39 bd 02 3f
       0.5136477 -0.15375909 -0.3021662 0.5106998
000090 b1 3c e5 3e 12 06 c3 be 6e 4d b4 3d 38 c8 48 3d
       0.44772866 -0.3809057 0.08803831 0.04901907
0000a0 b2 82 3a be c2 b7 97 3c bf a8 84 3d 4b 6f 33 be
       -0.18213919 0.01852024 0.06477498 -0.17522924
0000b0 9d 69 e8 be db e0 b0 be 32 64 dd be c8 32 82 be
       -0.45393077 -0.3454655 -0.43240505 -0.25429368
0000c0 f5 b2 a6 be d0 e9 04 bf 26 12 60 3f 4c 56 ca 3e
       -0.32558408 -0.5191927 0.8752769 0.39518964
0000d0 ef 9b e7 3d f2 5d 2e be 1f 53 43 3f 30 3c 9a 3e
       0.11309039 -0.17028025 0.7629871 0.30124044

classifier.layer0_normal.running_var f4 [56]
000000 03 fc bb 3d 9d f1 e0 3d 68 51 20 3e ff ab 46 3e
       0.09178927 0.10983584 0.15656054 0.19401549
000010 6c cf 0e 3e 7a 1c 23 3e f3 6e 06 3e 07 bb 61 3e
       0.13946313 0.15928832 0.13128261 0.22044002
000020 ec 9c 9f 3d ca ac 0c 3e 70 f9 57 3e 46 0b 60 3e
       0.07793602 0.13737789 0.21091247 0.218793
000030 e6 77 97 3d d5 70 05 3e e6 9d 88 3e 53 12 45 3e
       0.07395916 0.13031323 0.26682967 0.19245271
000040 43 67 2e 3e b8 f3 52 3e d4 6b 19 3e 9f b9 43 3e
       0.17031579 0.20600784 0.1498254 0.19113778
000050 58 ed ff 3d 2d f9 28 3e cb 13 ce 3d b5 74 1f 3e
       0.124964416 0.16501303 0.10062369 0.15571864
000060 1e 2e 3b 3e 67 40 f7 3d 40 15 43 3e c5 d8 2b 3e
       0.18279311 0.12072831 0.19051075 0.1678191
000070 eb 5e 5a 3e 16 0c d6 3d cb 46 5a 3e fd 3a 07 3e
       0.21325271 0.10451524 0.21316068 0.13206096
000080 74 42 0b 3e 2b b8 42 3e 80 30 bd 3d 6d 0e 20 3e
       0.13599569 0.19015567 0.09237766 0.15630503
000090 44 cc e0 3d 4d fc 3b 3e 58 4f fc 3d 81 1d 0f 3e
       0.109764606 0.18357964 0.12319821 0.13976099
0000a0 4b 15 f7 3d b2 c4 cd 3d f1 78 0f 3e 04 bc 05 3e
       0.12064608 0.10047282 0.14010979 0.13060004
0000b0 1a 95 02 3e 3a 80 d6 3d 6a 9b 1e 3e 76 10 95 3e
       0.1275219 0.10473676 0.15488973 0.2911412
0000c0 67 2e 90 3e 86 ce 11 3e 14 de 9d 3e 75 92 a8 3e
       0.28160402 0.14238939 0.30833495 0.32924238
0000d0 ad 8c ed 3d 7a 79 f8 3d c5 0c 86 3e 80 2e 4e 3e
       0.115990974 0.12132545 0.26181617 0.20134926

classifier.layer1.weight f4 [56, 56]
000000 e5 b6 8e 3d 75 2f d4 bd 87 94 c0 bd c3 b1 1a 3e
       0.06968478 -0.10360614 -0.09403329 0.15106873
000010 a7 92 51 be a1 d4 c5 bd 57 f6 00 be 42 8e 2a be
       -0.204661 -0.09659696 -0.12593971 -0.1665583
000020 77 e8 50 3d 85 ed 83 bc 8f 32 19 3e 6d 4d f1 3d
       0.051002946 -0.01610447 0.14960693 0.11782346
000030 be 01 4d 3d e7 af 2c be b1 f8 28 3c 84 8d 6e bd
       0.05005049 -0.16863976 0.010313199 -0.05824043
000040 e4 a1 f1 3d 00 47 36 3e 03 f9 02 be 9c 00 9b bd
       0.11798456 0.17800522 -0.12790303 -0.075684756
000050 25 f1 81 be c4 f4 13 bc 32 67 45 bc 04 fc c2 bd
       -0.2537929 -0.009030525 -0.012048529 -0.095207244
000060 ac 0d a5 3d 4a 08 98 3d 56 ee 95 3d 77 68 ed bd
       0.08059248 0.07423456 0.073208496 -0.11592191
000070 2f 38 72 3d 72 13 12 3e 2c e2 ee 3d fd 3a e6 bc
       0.059135612 0.1426523 0.116642326 -0.0281043
000080 1f 1a d3 bd 8d f4 f1 3d d6 da c9 3d e7 a3 21 3e
       -0.103077166 0.118142225 0.09856193 0.1578518
000090 01 66 a3 bd bc cf 14 bd 50 7e 10 bc 71 18 9c 3d
       -0.0797844 -0.036330923 -0.008819178 0.07621849
0000a0 35 a5 93 bb 13 51 6a be 92 5f 4f 3e 45 e5 d6 3d
       -0.004505778 -0.2288249 0.20251301 0.104929484
0000b0 25 cb f7 3d 52 ad 82 3c 77 83 ec bd 7c fa d3 3d
       0.120992936 0.015951786 -0.115485124 0.103505105
0000c0 6e e2 52 3d 14 dd ec 3d 42 f0 d4 bd 12 43 8d 3d
       0.05148547 0.11565605 -0.10397388 0.06897558
0000d0 0f da e8 bd d2 4d 1f 3b 13 13 26 3c 23 27 42 3d
       -0.113697164 0.002430786 0.010136384 0.047400605
0000e0 b2 d5 f4 3c 02 5e 43 be 43 c9 89 bd c0 7b 86 3c
       0.029887054 -0.1907883 -0.06727841 0.01641643
0000f0 ef 6c f9 bd bc ad 93 3c 92 30 72 3d 6c a0 b8 bd
       -0.121789806 0.018027179 0.05912835 -0.09014973
000100 28 bf 05 3e da 5e 7f 3c 38 79 3d bc e9 80 15 be
       0.13061202 0.015586579 -0.011564545 -0.14599957
000110 a5 e3 ab 3d 8e 27 ff 3d 19 f4 50 be db a9 6a 3d
       0.08393029 0.12458716 -0.20405616 0.057290893
000120 6f a7 ea bd 4a 55 49 3d dc 51 ce 3d 50 35 47 3d
       -0.11457717 0.049153604 0.10074207 0.048634827
000130 ea d9 9f 3d d6 a3 04 be c3 03 a0 3d 2a c3 bd bd
       0.07805236 -0.12953123 0.078132175 -0.0926574
000140 37 fc b2 bd a3 1e 6a 3b 2a fb ab 3d 50 dd 6c 3d
       -0.087395124 0.0035723827 0.08397515 0.057828248
000150 58 15 03 3c 8e 36 b9 bd a3 af 0d be 80 bb 83 3a
       0.008000694 -0.090436086 -0.13836531 0.0010050386
000160 86 d0 4e 3d 42 3a 26 3e 89 51 01 3d 62 74 62 be
       0.050491832 0.16233161 0.0315719 -0.22114709
000170 50 2d 02 3d 29 8b 47 3e 12 ba 00 be 46 00 44 bd
       0.031781495 0.19486679 -0.1257098 -0.047851823
000180 0a e1 79 3e e1 aa 8c 3d c3 27 a3 bd 6e 7d a5 bc
       0.24402252 0.0686853 -0.07966568 -0.020201411
000190 9f 9c 26 be 61 67 21 be ec 4a 58 be 5a 55 1f bd
       -0.16270684 -0.15762092 -0.2112233 -0.038899757
0001a0 56 63 42 3d 33 8c be 3d 5e ee 51 bc bd 87 59 be
       0.047458015 0.09304085 -0.012813179 -0.21243186
0001b0 5b 6e 0d 3e ba aa c6 bb 10 f2 db bd 5e b1 56 be
       0.13811629 -0.0060628327 -0.10739529 -0.20966098
0001c0 7f 0a a1 3d f2 98 2f 3d 76 07 5c be c2 23 36 bb
       0.0786333 0.04287047 -0.21487221 -0.002779231
0001d0 52 36 2d 3e 88 84 55 bd 17 90 30 bd f8 d1 cf bc
       0.16915253 -0.052128345 -0.043106165 -0.025368676
0001e0 a9 88 b1 3d 36 ce 82 bd fe 71 64 3d 5e ef 30 3c
       0.08668644 -0.06386988 0.055772774 0.010799257
0001f0 fe 1d 35 3c e2 2e e9 3d 2a 97 39 bd b1 85 d3 3b
       0.011054514 0.11385895 -0.045310177 0.0064551462
000200 bc 5b e0 3d 8b 42 4f 3d 95 79 17 bd 6c 13 ed bb
       0.10954997 0.05060057 -0.036981184 -0.0072349813
000210 80 16 41 34 e1 8e d2 3b 49 c6 66 3d 40 1c f1 3d
       1.7982711e-07 0.006425724 0.056341443 0.117729664
000220 9b f0 fa bd 2e 99 88 bd b0 f0 2f 3e f3 a9 cc bc
       -0.12252923 -0.06669842 0.17181659 -0.024983382
000230 20 3a 04 be 9a 8b be bb 85 17 2d 3e 45 6d 0e be
       -0.12912798 -0.0058149816 0.16903503 -0.1390887
000240 0e 48 29 bc c8 b4 27 3e bb ed 8e bd 5d 8f c6 bd
       -0.010332121 0.16377556 -0.06978937 -0.09695313
000250 28 f0 d0 bb cd c9 72 3d eb fb 00 3e 99 18 b8 bc
       -0.006376285 0.059274483 0.12596099 -0.022472667
000260 aa 68 dc bb 0c 25 5f bd 57 0b 36 3d a5 6d e4 3d
       -0.006726344 -0.05447869 0.04444441 0.111537255
000270 d7 c4 bc 3b eb f4 15 3e 3c 4a 69 bc 6c 69 13 3e
       0.00576077 0.1464421 -0.01423889 0.14395684
000280 9a 7a 15 3e 7b d0 58 3d 20 2f 5c be 8b 45 0c 3d
       0.1459755 0.052933197 -0.21502352 0.03424601
000290 3c 08 09 bd 16 3c 98 bd c6 10 26 be 46 c1 cd 3d
       -0.03345512 -0.074333355 -0.16217336 0.100466296
0002a0 44 04 08 3d 34 97 81 3d fb cf 45 3d 61 20 c2 bc
       0.033207193 0.06327668 0.04829405 -0.02369708
0002b0 5b f2 a0 3d 6d 42 f7 bb 24 b2 d0 bd 53 5b be bd
       0.07858726 -0.0075457604 -0.10190228 -0.092947625
0002c0 f9 27 de 3d fe 5d 9d bd da 36 55 bd f3 54 09 be
       0.10847468 -0.07683943 -0.052054264 -0.13411312
0002d0 e5 c9 d0 bb 5f e6 0b bc b7 78 73 3e 94 a0 cc bd
       -0.006371724 -0.0085388115 0.23776518 -0.09991565
0002e0 2d 47 14 3e df 30 b7 bd d5 cb cd bc a7 e1 22 be
       0.14480276 -0.08944868 -0.025121609 -0.15906392
0002f0 ad ba c6 3d b5 27 29 3e d6 b3 ee bd fa 54 50 bd
       0.09703574 0.16519053 -0.11655395 -0.05086229
000300 58 bd 0a be 52 c5 22 bd 1e 46 18 3e 0f ab 31 bd
       -0.13548791 -0.03973896 0.14870498 -0.043376025
000310 1e 25 95 bd 2c f4 64 bd 65 1c 8f 3e bf bb 1c 3e
       -0.0728247 -0.055896923 0.2795135 0.15305994
000320 ea 7f 10 bd ca 50 93 bd 7d 03 b0 bd 84 97 0c bd
       -0.03527824 -0.07193144 -0.08594415 -0.034324184
000330 1d 8a f0 bd 9a 28 2b be 42 b0 0f 3d b2 cd 09 3e
       -0.11745093 -0.16714707 0.035080202 0.13457373
000340 6f b9 be bd f4 00 69 3c d7 59 00 bd 4c 71 f2 3d
       -0.093127124 0.014221419 -0.031335678 0.11838016
000350 49 cb 4e 3e 7c 05 90 3d f9 c7 42 bd aa 9b 0e 3e
       0.20194735 0.07032296 -0.04755399 0.13926569
000360 12 3c 10 3d 3c c6 e2 3c 50 28 c1 bd 6d 5b 89 3b
       0.035213538 0.027682416 -0.09431517 0.004191807
000370 cd 7a a0 3d fd 25 56 be 9a 8a 34 bd e1 41 36 bd
       0.078359224 -0.20912929 -0.044077493 -0.04449642
000380 2b 3e 60 be a8 3a 6d 3e ed 67 c4 bd 79 4f 26 be
       -0.21898715 0.23166907 -0.09590135 -0.16241254
000390 e3 9d 65 3d 38 db 22 3c 39 37 8b 3d a8 e2 8e 3d
       0.056058776 0.009939961 0.06797642 0.06976825
0003a0 ed b5 cb bd 4e 81 4f 3e d8 1f fa 3d 99 22 a0 bc
       -0.09946809 0.2026417 0.12213105 -0.019547747
0003b0 2a a1 cd 3b 32 62 04 3d 9c de 57 3e 81 ff 8e bd
       0.006275316 0.03232021 0.21081012 -0.06982327
0003c0 79 d8 8d bd 73 48 d1 3d ea e6 98 be 1d c7 5e be
       -0.069260545 0.10218897 -0.29863673 -0.21755643
0003d0 c1 54 a7 3d e0 5e 4e bd 48 b6 c0 bc cc 22 0d be
       0.081704624 -0.05038345 -0.023524418 -0.13782805
0003e0 8a 8b b6 3d c0 05 57 bd df 4b 83 3d 01 b9 69 3c
       0.08913334 -0.052495718 0.06410956 0.0142653
0003f0 df ae 55 3d 86 38 24 3e ce 67 24 3e 2c 4e 58 3e
       0.052168723 0.16037187 0.16055223 0.2112357

classifier.layer1.bias f4 [56]
000000 e8 d8 3c b5 b8 38 77 35 90 06 a8 36 2b d3 02 37
       -7.03511e-07 9.2097207e-07 5.007554e-06 7.79777e-06
000010 c9 9e b9 b6 a0 01 d0 36 b0 8c 8f b6 0a 90 04 37
       -5.5319147e-06 6.1990722e-06 -4.2781103e-06 7.90135e-06
000020 b0 f2 8e 33 b4 09 6a b7 04 dc 5a b6 7c 8a 05 b8
       6.656535e-08 -1.3949746e-05 -3.2612597e-06 -3.1838645e-05
000030 16 b5 76 37 7f 8d 3e b7 10 c7 f1 35 6e 2a 35 b7
       1.4704905e-05 -1.1357827e-05 1.8013834e-06 -1.079832e-05
000040 85 2a a1 b7 4d 83 59 37 a8 ee 9d b7 ce c7 66 37
       -1.9212495e-05 1.2964779e-05 -1.8826991e-05 1.3755589e-05
000050 58 d5 57 35 cc c5 a7 36 1a d7 34 37 ae 7a cb 36
       8.04042e-07 5.0000144e-06 1.0778918e-05 6.0641532e-06
000060 87 77 04 37 d1 ec 8c 36 12 01 86 37 d8 1e 00 37
       7.895643e-06 4.199894e-06 1.5974543e-05 7.636576e-06
000070 43 61 e0 b6 e2 6a 4d 36 fa 5e 3c 37 82 b5 55 b7
       -6.687043e-06 3.0609594e-06 1.1227787e-05 -1.273805e-05
000080 59 00 ca b6 3a b5 6a 37 a8 9b 21 36 4f 5e 16 b7
       -6.0201096e-06 1.3989682e-05 2.4081473e-06 -8.962655e-06
000090 4e 71 d8 b6 dc b7 a2 37 56 f3 4b b7 20 b8 0c 37
       -6.450492e-06 1.9397521e-05 -1.2156399e-05 8.38752e-06
0000a0 f4 5c 9e 37 aa 9e 3a 37 ac 6e 86 b5 bc b0 5d 37
       1.8878352e-05 1.1123406e-05 -1.0015988e-06 1.3213776e-05
0000b0 1b 9c 26 36 47 26 81 36 ce f4 b2 36 9f c9 51 36
       2.4826793e-06 3.8489557e-06 5.3333124e-06 3.1260786e-06
0000c0 e0 d5 8c 35 4c ea 30 b7 9f 2f 32 37 58 cc cf b5
       1.0493059e-06 -1.0544969e-05 1.0620714e-05 -1.5482174e-06
0000d0 33 94 11 38 76 5f d3 36 0e fc 03 35 3b b5 2f 37
       3.4708715e-05 6.299403e-06 4.916809e-07 1.0473009e-05

classifier.layer1_normal.running_mean f4 [56]
000000 9f a4 99 3d 90 4d cf be 44 47 86 3e a0 42 fa bc
       0.07502102 -0.40488863 0.26226246 -0.030549347
000010 bc 5f 04 3e c1 e2 36 be 22 9b 2f bd 2a b1 d0 bd
       0.12927145 -0.17859937 -0.042872556 -0.10190041
000020 fc 8a d2 3d e9 5f 20 bf 5e 91 a0 be 9b 02 0e bd
       0.102804154 -0.6264635 -0.31360906 -0.034670454
000030 78 a3 e5 be d5 85 83 be a6 ed 02 3e d1 cc 05 bf
       -0.4485128 -0.25688043 0.12785968 -0.5226565
000040 05 6e 52 be b2 44 d4 be f4 d1 cf be 71 0a d1 be
       -0.20549782 -0.4145866 -0.4058987 -0.4082828
000050 83 cc 7e bc 5b ea dc 3d 7e d4 06 bf 5a 9a 3f 3e
       -0.015551689 0.10786887 -0.5266799 0.18711224
000060 1c 69 2e 3e de 91 91 bd 54 88 8e be c4 23 2f bc
       0.17032284 -0.071079 -0.27838385 -0.0106896795
000070 66 cf 1e 3e 85 74 88 3d d3 e6 02 3e a0 07 ea 3c
       0.15508804 0.06662849 0.12783365 0.028568089
000080 9b a3 b9 be d7 de 8c 3e cf 28 bc 3d 8d e8 7a be
       -0.36257634 0.27513763 0.09187471 -0.24502774
000090 23 71 43 bf 63 0b 21 bf a7 05 35 bf 22 13 1e 3e
       -0.7634451 -0.62908 -0.7071175 0.15436986
0000a0 ae 95 be bd bf 88 29 3e b9 d3 d6 bd 26 f4 87 3e
       -0.09305893 0.1655607 -0.10489602 0.26553458
0000b0 50 6e c8 be 6b 49 d4 be de bf 66 be db 87 e9 bd
       -0.39146662 -0.41462263 -0.22534129 -0.114028655
0000c0 0c b7 35 3e 69 2f 26 be 84 61 65 be 5e 02 55 be
       0.17745608 -0.16229023 -0.2240048 -0.20801684
0000d0 d1 d7 54 bf c9 b9 f6 3e 8b 1b 25 bd 69 0d 1d bf
       -0.8314181 0.48188618 -0.04030947 -0.6134859

classifier.layer1_normal.running_var f4 [56]
000000 6a 5b ca 3f 5a e2 47 3f 68 35 45 3f f2 eb 3b 3f
       1.5809147 0.7807976 0.77034616 0.734069
000010 b5 5c b6 3e 29 92 96 3f b5 5f 21 3f 62 cb 8a 3f
       0.35617605 1.1763355 0.6303666 1.0843318
000020 99 9f db 3e 6b 55 4d 3f 51 4d 60 3f bf 61 8a 3f
       0.428952 0.8020846 0.87617975 1.081108
000030 9a 27 9b 3f b0 db 0e 3f 97 23 89 3f 22 d0 95 3f
       1.212146 0.55803967 1.0713986 1.1704142
000040 92 7b 3f 3f 4f 2c 26 3f c1 d1 22 3f 9b a8 a4 3f
       0.7479793 0.6491136 0.6360131 1.2863954
000050 e4 ba 85 3f b0 c4 6e 3f 79 20 8b 3f b8 4a d5 3e
       1.044766 0.9326887 1.0869285 0.41658568
000060 a2 d3 39 3f 45 6e 27 3f 41 f5 1d 3f 8f 84 ba 3f
       0.7258855 0.6540263 0.6170235 1.4571704
000070 6e 89 9d 3f 6f 18 06 3f 74 7d bd 3e 32 f9 20 3f
       1.2307565 0.5238103 0.37009776 0.6288024
000080 11 95 a4 3f 14 8e 75 3f a9 73 d2 3f 6b 52 29 3f
       1.2857991 0.9591992 1.6441547 0.66141385
000090 68 46 b6 3e 84 de 60 3f 29 1d b5 3f 5c 7d a9 3f
       0.3560059 0.8783953 1.4149524 1.3241382
0000a0 7c 09 84 3f e1 2d 0b 3f b7 a0 39 3f ff 6a ff 3f
       1.0315394 0.5436688 0.72510856 1.9954528
0000b0 86 5c 96 3e 09 60 16 3f f0 ad 1d 3f 6a ad 7a 3f
       0.29367465 0.5874029 0.6159353 0.9792086
0000c0 19 62 cf 3e 00 86 92 3f ce e3 2a 3f 06 4d 3a 3f
       0.4050453 1.1447144 0.6675385 0.7277378
0000d0 8f c9 44 3f d2 96 34 3f dd d9 74 3f c2 4b 91 3f
       0.76870054 0.70542634 0.95644933 1.1351244

classifier.layer2.weight f4 [3, 56]
000000 ef 67 b0 3e d1 ba af 3d 18 4b a3 3e 45 1a c8 3d
       0.34454295 0.08580554 0.3189323 0.097706355
000010 75 b3 6e be 36 d0 30 be 73 4b 4a 3e 4b 20 c3 be
       -0.23310645 -0.17266926 0.19755344 -0.38110575
000020 87 6e b2 bd d6 87 61 3e f9 49 19 be fd 82 f3 bc
       -0.08712488 0.22024474 -0.14969625 -0.029725546
000030 b9 2e bc be 5a f8 98 3e 05 ad e6 be ee 7a 39 be
       -0.36754397 0.29876977 -0.45053878 -0.181133
000040 25 c5 8c be d1 b4 f4 bd 97 3b 01 bd c6 da 81 3e
       -0.2749416 -0.119485505 -0.03155097 0.25362223
000050 96 db 8a bd ea 7f 4f be b8 9d 65 be 72 ba 75 3d
       -0.06780164 -0.20263639 -0.22423446 0.05999226
000060 1a 63 34 3e 18 a5 2b be 2c 39 eb bd e6 3a ca 3e
       0.17615929 -0.16762197 -0.11485514 0.3949806
000070 46 2a be 3e 9e ad 34 be aa 98 4a be f7 2a d7 3c
       0.37141627 -0.17644355 -0.19784799 0.026265604
000080 b6 bf 9e 3e d9 ff b7 be b4 32 4e 3e cf 43 75 be
       0.3100564 -0.35937384 0.20136529 -0.23951648
000090 d2 c0 1d 3d 0c 47 8b be 89 f9 2e be 0c f1 b2 3e
       0.038513966 -0.27202642 -0.17087378 0.3494953
0000a0 49 82 6c bd a6 ce 84 bd 9a f8 9e be 10 6d 92 3e
       -0.057741437 -0.064847276 -0.31049043 0.28598833
0000b0 0e b4 8d 3c d6 c7 b4 3d 97 b7 9b be 13 00 2b be
       0.01729777 0.08827178 -0.30413505 -0.16699247
0000c0 16 c6 31 be 70 6c d8 bd 26 52 e9 bc 7d 1e 64 be
       -0.1736072 -0.10567558 -0.028481554 -0.22277255
0000d0 34 1d 83 3e 0f 26 ab be bc 1c d0 3e df e8 e4 bd
       0.25608218 -0.33427474 0.40646923 -0.11177229
0000e0 20 44 85 be cb b4 4b bd de 7a 8c be 27 6b c4 3a
       -0.26028538 -0.049732964 -0.2743749 0.0014985547
0000f0 3c b5 54 3e 46 bc 68 3e aa f1 83 be 0a 07 7f bc
       0.2077226 0.2272807 -0.25770313 -0.015565643
000100 ac e5 0b 3e 6c d6 82 be 15 92 41 bc 4e 10 15 3e
       0.13661832 -0.25554216 -0.011814614 0.14557001
000110 38 db 06 be 3b c6 4c 3e a6 0a 2b bd 07 5d bf bd
       -0.13169563 0.19997494 -0.041758202 -0.093439154
000120 96 3c ce 3c 33 45 2d be 4a 2d e6 bd b1 56 67 be
       0.025175374 -0.16920929 -0.11239107 -0.22591664
000130 91 0b dd 3e 07 5b aa 3e 59 07 f5 38 04 88 f9 bc
       0.43172887 0.33272573 0.00011683879 -0.030460365
000140 28 80 ae 3d 3a b5 22 bd c0 be 42 be f1 37 3d be
       0.085205376 -0.039723612 -0.19018078 -0.18478371
000150 c5 99 9f be 05 93 1a be 64 9f 26 3e 7a d3 9c 3e
       -0.31172004 -0.15095146 0.1627174 0.30630094
000160 a4 63 5f be 64 fc ab 3e 89 fb 64 be b5 a8 0e bb
       -0.21815354 0.33590996 -0.22361578 -0.0021768038
000170 c9 28 22 3c f7 1e dc bd e0 b8 e4 bc 97 5b c6 bc
       0.009897419 -0.107480936 -0.027920187 -0.024213595
000180 00 88 6c bd c9 4c 41 3e f0 74 c8 bd 1c 47 3a be
       -0.057746887 0.18876947 -0.09787929 -0.18191189
000190 8f 12 81 3e 1d a6 b9 be 8b b3 a3 3c b7 37 8f 3e
       0.25209472 -0.36259547 0.019983074 0.27972195
0001a0 ad 4d 9f 3e 60 10 12 3e 93 e5 cb 3d a0 18 9a bd
       0.3111395 0.14264059 0.09955897 -0.07524228
0001b0 8f 5b c7 be 77 ae 4f 3e db e4 ff bd 05 22 60 3b
       -0.3893704 0.20281397 -0.124948226 0.0034199965
0001c0 70 05 35 be ec e6 9c 3e 84 15 97 3c ce 78 ae be
       -0.17677855 0.3064493 0.018442877 -0.34076542
0001d0 f6 91 63 be c0 f7 ad be 49 ba cb 3c c9 e3 7c 3e
       -0.22223648 -0.3397808 0.024869101 0.24696268
0001e0 84 74 4b be c4 93 64 3c 99 60 dc 3d 7f 4c ac be
       -0.19868666 0.013951246 0.10760612 -0.33652112
0001f0 0e a0 67 3e a7 9e a4 be ca fd ac 3d 33 d7 28 3e
       0.2261965 -0.32152292 0.08446844 0.16488342
000200 6a b8 0b 3e 8e 3b 76 3e d9 d0 ad 3e 0c ed 2e be
       0.13644567 0.24046156 0.339484 -0.17082614
000210 63 34 2e be 46 dc 72 be 41 5d 19 3e ce 91 63 be
       -0.17012171 -0.2371684 0.1497698 -0.22223589
000220 e3 22 e9 be e4 5f ec 3d 86 26 11 3e 16 5b 16 be
       -0.4553443 0.11541727 0.14174852 -0.14683184
000230 9c 34 12 be c7 20 1c 3e c7 d5 28 bd e7 60 64 be
       -0.14277881 0.15246879 -0.0412195 -0.2230259
000240 3c 8f 90 be 78 b8 0b be 2e fd 2c be 42 bc 2d 3d
       -0.2823428 -0.13644588 -0.16893455 0.042415865
000250 e2 03 ca be 03 12 1d 3e 4b ed 87 3e e9 14 db be
       -0.39456087 0.15338902 0.26548228 -0.4278939
000260 c3 00 0b 3e 17 a7 d5 bd 97 65 92 3e e1 b5 51 be
       0.1357451 -0.104322605 0.28593132 -0.20479538
000270 9d 73 fb be b0 c7 58 3e d7 41 28 3d c6 95 aa be
       -0.49111643 0.21169925 0.041078415 -0.33317393
000280 1c dc d3 3c 92 88 c3 be 71 e8 aa be 18 f4 02 3e
       0.025861792 -0.38190132 -0.33380464 0.12788427
000290 c1 e0 5e 3e 54 ee 24 bd 8e a9 10 be 47 ce fa 3d
       0.21765424 -0.04026635 -0.1412718 0.122463755

classifier.layer2.bias f4 [3]
000000 6c 7d b9 bc 03 90 0b 3e 5a 59 4a 3a
       -0.022642814 0.13629155 0.0007719003

exp_avg f4 [56, 25]
000000 22 96 8c 36 48 57 52 b6 35 c2 0a 38 a0 65 31 b8
       4.189803e-06 -3.1343243e-06 3.3082633e-05 -4.2294734e-05
000010 a7 74 16 b8 4c 74 a4 37 e7 d6 b4 b7 36 21 d5 37
       -3.5871428e-05 1.9604478e-05 -2.1557744e-05 2.5407044e-05
000020 60 57 c9 b7 0d f8 cf b7 f4 c2 0b b8 8c c1 b2 b6
       -2.4001754e-05 -2.479183e-05 -3.3321747e-05 -5.327345e-06
000030 c0 7a 8d b5 c1 52 ce b6 27 b4 a0 37 66 40 8a 37
       -1.0541044e-06 -6.1489122e-06 1.9157376e-05 1.648087e-05
000040 0a d8 53 b7 74 fd a8 37 8e 46 e6 b7 b2 c5 8d b7
       -1.2626881e-05 2.0145184e-05 -2.7450991e-05 -1.6900569e-05
000050 ef 51 83 37 b4 7d 13 b8 a9 a5 2f b7 20 34 58 38
       1.565457e-05 -3.51646e-05 -1.0469384e-05 5.154696e-05
000060 e2 28 a5 37 0d 43 e0 36 bd 76 9c b6 56 04 d4 b6
       1.968857e-05 6.683526e-06 -4.6629852e-06 -6.318597e-06
000070 3b 0c 6a 38 c4 5f 4d b8 1e 86 19 b9 0e b4 a8 38
       5.5801338e-05 -4.8964997e-05 -0.0001464118 8.044402e-05
000080 74 e7 bd b8 46 42 b9 38 46 5c 88 38 76 ed 31 b9
       -9.055334e-05 8.833832e-05 6.5021726e-05 -0.00016968496
000090 fe 28 8b b8 37 f8 c0 36 ce 95 47 34 c9 08 29 39
       -6.635672e-05 5.750942e-06 1.8587818e-07 0.00016120369
0000a0 7e 5f 01 b9 b7 f2 d5 38 02 10 e7 38 36 92 d7 b8
       -0.00012337972 0.000102018406 0.0001101792 -0.00010279233
0000b0 5f 8e 09 38 38 7e 06 39 de 13 79 38 cc 61 10 36
       3.279594e-05 0.00012826256 5.938473e-05 2.1514597e-06
0000c0 44 be e0 b7 e2 91 93 b6 74 00 c6 b6 be ae 19 37
       -2.679148e-05 -4.3979244e-06 -5.9009126e-06 9.160196e-06
0000d0 80 81 2b 36 8a b9 38 38 0d dd b8 b7 8d 8e 4c b8
       2.5556365e-06 4.4041815e-05 -2.2037444e-05 -4.877015e-05
0000e0 74 42 e0 b5 f2 44 7a b8 a9 f7 6d 38 46 0c 49 38
       -1.6708641e-06 -5.9668855e-05 5.6735855e-05 4.7933565e-05
0000f0 03 a2 d5 37 49 0c 79 38 52 7f 90 b7 a4 2e 77 36
       2.5467021e-05 5.9377668e-05 -1.7225426e-05 3.6833017e-06
000100 f8 a6 7a 37 43 05 00 b8 6b ab 54 38 0a dc 69 b8
       1.4940037e-05 -3.052248e-05 5.0704384e-05 -5.5756456e-05
000110 74 1e de 37 35 bd 85 b8 00 76 d7 b7 8c 6d 17 38
       2.6478643e-05 -6.377177e-05 -2.5684945e-05 3.610323e-05
000120 4d 5e 80 38 90 0c af b8 1a 4c 9b 35 58 af 02 b7
       6.1210805e-05 -8.34699e-05 1.1570548e-06 -7.789429e-06
000130 3d df 26 37 d8 99 15 38 ab d5 b7 b7 59 01 20 b8
       9.946348e-06 3.5667646e-05 -2.1914797e-05 -3.8148228e-05
000140 6f 82 bb 37 47 0c 83 38 6e 11 c5 37 98 09 c9 b7
       2.2352875e-05 6.2488536e-05 2.3492346e-05 -2.3965535e-05
000150 7a 82 f7 b7 88 5e 35 38 14 c9 13 38 ba 68 fe b7
       -2.9505452e-05 4.3241802e-05 3.52348e-05 -3.0327927e-05
000160 bb 84 4d 37 95 7a 09 b8 ac 75 46 37 bb e8 82 b7
       1.2249856e-05 -3.277751e-05 1.1829117e-05 -1.5605581e-05
000170 9e 18 5f b8 1d 98 c6 b7 ed a3 b3 b7 f5 37 61 b7
       -5.319027e-05 -2.3674273e-05 -2.1414797e-05 -1.3424074e-05
000180 0c 45 26 b6 10 04 e4 36 78 ec e4 b7 70 a2 15 38
       -2.4776118e-06 6.7954024e-06 -2.7289832e-05 3.567565e-05
000190 47 da 36 b8 35 58 44 38 20 a6 d5 37 8a 40 43 b8
       -4.3595468e-05 4.681219e-05 2.5468937e-05 -4.655173e-05
0001a0 14 3b 2d 38 ef 80 af 38 90 8b 1b 36 2b 65 cb b7
       4.1301435e-05 8.368666e-05 2.3178036e-06 -2.4246596e-05
0001b0 48 8d bd 37 17 e8 ce 37 77 3d 8d b7 68 66 b2 b6
       2.2596345e-05 2.4665189e-05 -1.6837132e-05 -5.316735e-06
0001c0 01 1e 91 b8 b2 ce a5 b6 a8 3c 46 b7 68 96 92 b7
       -6.9197275e-05 -4.9414457e-06 -1.1815842e-05 -1.7474595e-05
0001d0 fd ce 15 b8 60 41 8c b5 7a 05 94 b7 4a ac b5 37
       -3.571714e-05 -1.044984e-06 -1.7645525e-05 2.165711e-05
0001e0 b1 9a 22 b8 ad 04 e1 37 b8 15 95 35 12 14 50 38
       -3.8767877e-05 2.6824267e-05 1.1107686e-06 4.9609756e-05
0001f0 82 69 db b7 59 4e ee 37 2a 70 fc b7 e1 56 21 b8
       -2.6155965e-05 2.8408294e-05 -3.0092971e-05 -3.8466304e-05
000200 34 e3 14 b8 a2 16 dd b8 80 1b c2 36 b0 be 29 38
       -3.549755e-05 -0.00010542317 5.784852e-06 4.047033e-05
000210 da 4f 2e 37 6e de 45 b7 f0 09 84 38 48 91 6f b8
       1.03898e-05 -1.17939035e-05 6.2961015e-05 -5.7117344e-05
000220 40 db ba 37 6f a3 01 b9 ac d7 9d b6 89 2a ac 37
       2.2275024e-05 -0.00012363282 -4.704072e-06 2.0523805e-05
000230 2a 15 ac 37 1c b5 4d b8 cc c6 35 37 66 79 91 b8
       2.0513853e-05 -4.904448e-05 1.0834727e-05 -6.936751e-05
000240 32 6e 35 b7 06 46 20 38 e0 2d 12 b7 10 9c df b6
       -1.0814098e-05 3.8212187e-05 -8.712959e-06 -6.664086e-06
000250 a4 78 b2 b8 dd cc ff 37 e9 28 b7 b7 42 5b 99 37
       -8.5101725e-05 3.0493766e-05 -2.183435e-05 1.8281517e-05
000260 e5 df fd 37 44 ae 58 b8 76 83 e7 38 7c 31 b7 b8
       3.026421e-05 -5.166071e-05 0.00011039425 -8.735337e-05
000270 35 82 47 38 ae 12 0f b8 34 bf 06 38 a2 c9 28 38
       4.7566562e-05 -3.4111254e-05 3.212616e-05 4.0242106e-05
000280 f0 63 28 38 40 d8 97 b6 c4 6d a6 38 d4 23 42 b7
       4.0147395e-05 -4.5253255e-06 7.935942e-05 -1.1571643e-05
000290 40 f0 82 34 dc e4 60 b8 80 ba d3 b5 d7 33 3e 38
       2.4389192e-07 -5.3618904e-05 -1.5775004e-06 4.534781e-05
0002a0 8d ef 2c 38 c3 dd 89 38 d0 9d c7 b8 dc 40 ce 38
       4.1231095e-05 6.5739754e-05 -9.518454e-05 9.8349265e-05
0002b0 ca 15 ad 38 1b 25 29 b8 a4 c7 48 38 c1 c4 6b b7
       8.2533414e-05 -4.0327297e-05 4.7869646e-05 -1.4052902e-05
0002c0 ac 17 7d 37 ca c8 2d 37 41 6e 2f 38 42 1f 4e 38
       1.5085487e-05 1.0358353e-05 4.1825933e-05 4.914334e-05
0002d0 43 7b 6a b7 09 5f ea 37 26 f9 d8 b7 a9 9d e9 37
       -1.3976186e-05 2.7939228e-05 -2.5865225e-05 2.784918e-05
0002e0 b8 56 43 38 d0 5c 7c 38 f3 12 ac b8 94 82 c0 38
       4.6572386e-05 6.016792e-05 -8.205129e-05 9.1795955e-05
0002f0 07 57 5c b7 fc bc c6 35 33 a0 e9 b7 48 36 81 38
       -1.31332845e-05 1.4807151e-06 -2.7850363e-05 6.16131e-05
000300 4a 4f b6 38 8e 9a 21 38 c0 dc d1 38 72 fe f0 b7
       8.693205e-05 3.852933e-05 0.000100070145 -2.8728715e-05
000310 7e c2 85 37 18 f3 06 38 89 4b d0 37 1d f9 2e 37
       1.5945403e-05 3.217449e-05 2.4830706e-05 1.0429209e-05
000320 b0 1f 39 37 03 21 22 b7 af 29 95 b6 3f 16 ad 37
       1.1034237e-05 -9.663639e-06 -4.4453986e-06 2.0633566e-05
000330 66 c3 28 b8 82 e0 82 b7 04 65 9d 37 d3 0a 8a 37
       -4.02363e-05 -1.5601752e-05 1.8762898e-05 1.6455922e-05
000340 e4 b4 6b b7 2d 88 84 b7 ef 2c 08 37 5c 79 0a b8
       -1.4049208e-05 -1.5799038e-05 8.116694e-06 -3.301479e-05
000350 22 a5 1d b7 7a 0c 2a 37 74 7a 4a b7 8b 72 66 37
       -9.396377e-06 1.01356945e-05 -1.2068649e-05 1.3735737e-05
000360 60 86 26 38 50 93 d5 b7 36 42 0d 38 a4 f4 13 b8
       3.970263e-05 -2.5460176e-05 3.3678683e-05 -3.527537e-05
000370 8d 18 92 37 a1 a0 ae 37 e6 6c cf 36 2e 1d 0a 38
       1.7415989e-05 2.0817215e-05 6.181758e-06 3.292894e-05
000380 e2 18 4f b7 b1 23 99 38 58 0c 9a b8 d8 3c c0 b8
       -1.2343955e-05 7.3022566e-05 -7.3455914e-05 -9.1666065e-05
000390 d0 fd 79 b7 f7 64 05 b8 48 7d 78 37 d8 68 36 b5
       -1.4900652e-05 -3.1803702e-05 1.4811121e-05 -6.795285e-07
0003a0 eb d1 c9 37 aa b9 b8 b7 6b 09 4b 38 6e c7 83 b8
       2.4058818e-05 -2.2020966e-05 4.8407743e-05 -6.2837134e-05
0003b0 28 16 8e b8 d4 78 e9 b8 e6 44 4a b7 2c 76 34 38
       -6.7752146e-05 -0.00011132812 -1.205618e-05 4.30254e-05
0003c0 45 ae 47 38 4a 04 99 b7 2a e5 1f 37 d6 4e c1 b8
       4.76076e-05 -1.8241019e-05 9.530495e-06 -9.2176415e-05
0003d0 14 36 7c b7 db ea 77 38 3b ec d4 b7 70 c5 27 38
       -1.50329615e-05 5.9108115e-05 -2.5382373e-05 3.999978e-05
0003e0 00 13 7d 35 63 af 83 b8 db be 73 37 b6 6f 80 b7
       9.4277493e-07 -6.279235e-05 1.4528366e-05 -1.5310809e-05
0003f0 63 3c 43 36 a8 0b 52 37 0f b9 95 b7 85 5d 0a 38
       2.9092414e-06 1.2519689e-05 -1.7848359e-05 3.298886e-05

exp_avg_sq f4 [56, 25]
000000 01 9e 40 36 a1 9c 40 36 eb 60 32 36 c3 48 ef 36
       2.87022e-06 2.87014e-06 2.658048e-06 7.1312256e-06
000010 81 7e 96 36 0c 1a 7c 37 cc d2 46 37 06 9d 65 36
       4.4850754e-06 1.5026435e-05 1.18508e-05 3.4215059e-06
000020 73 9e 65 36 93 23 7f 36 dc d0 73 36 70 a2 5e 37
       3.4215889e-06 3.8018668e-06 3.6331394e-06 1.3270052e-05
000030 23 7d 86 36 39 29 9e 33 d6 01 51 37 d4 45 86 36
       4.008079e-06 7.364947e-08 1.2457798e-05 4.0016403e-06
000040 75 27 3d 36 80 d5 4b 36 f1 18 a6 36 8b 2d 64 36
       2.8186162e-06 3.037363e-06 4.950089e-06 3.4001157e-06
000050 3c 78 0f 37 02 a5 00 37 05 cd b4 36 83 87 34 36
       8.551458e-06 7.667813e-06 5.3882854e-06 2.6900968e-06
000060 86 02 55 36 88 4d 88 37 aa 4e 88 37 1c 7b 91 37
       3.1740942e-06 1.6248567e-05 1.6249094e-05 1.7342674e-05
000070 a5 6c 00 38 1e 4b 83 37 8c 4a 30 38 33 52 5a 37
       3.061876e-05 1.5651396e-05 4.2031097e-05 1.3012951e-05
000080 b1 ce a6 37 28 cf a6 37 17 ad d0 37 a7 60 1e 38
       1.988499e-05 1.9885207e-05 2.4876133e-05 3.776015e-05
000090 08 da 16 38 e7 f4 09 38 4b 14 5d 35 6e 36 37 37
       3.5965844e-05 3.289143e-05 8.2358446e-07 1.0920323e-05
0000a0 36 c5 ab 37 43 a2 10 38 78 f4 ab 37 2c 2c 16 38
       2.0476622e-05 3.4483393e-05 2.0498628e-05 3.5803925e-05
0000b0 3e 6b 8d 37 36 71 aa 37 b7 22 92 37 76 a3 15 38
       1.6858448e-05 2.0318297e-05 1.7420722e-05 3.5676603e-05
0000c0 5c 7c 92 37 77 7f 09 37 6c 6a 1e 36 94 62 1e 36
       1.7462466e-05 8.195514e-06 2.360578e-06 2.3601215e-06
0000d0 11 bd bd 36 a8 5c 29 37 0d 6f 16 37 c5 6c 33 37
       5.654649e-06 1.0094758e-05 8.966553e-06 1.0694556e-05
0000e0 54 be e1 36 0f d1 1c 37 17 cf 1c 37 be 61 16 37
       6.7276796e-06 9.347e-06 9.346541e-06 8.963454e-06
0000f0 2c 6c 29 37 df 8e 87 37 da e9 ea 36 2e 36 2e 36
       1.0098371e-05 1.6159784e-05 7.0009673e-06 2.5959557e-06
000100 4a 0a f1 36 8a 47 55 37 d4 32 36 37 0f a9 e1 36
       7.1835575e-06 1.2712446e-05 1.085988e-05 6.7252035e-06
000110 c0 d4 34 37 2d 2b 0e 37 e5 e5 37 37 e3 2f 65 37
       1.0778371e-05 8.473912e-06 1.09611765e-05 1.3660613e-05
000120 83 86 f5 36 e1 9c 51 37 9d 31 e5 36 27 5a 08 36
       7.317228e-06 1.2493897e-05 6.8305076e-06 2.0318055e-06
000130 a0 56 08 36 ef 17 ef 35 00 48 5c 36 0f ab ce 35
       2.0316002e-06 1.7813853e-06 3.2824464e-06 1.5397981e-06
000140 00 97 ab 35 a8 2d 8d 36 43 14 34 36 1b 14 34 36
       1.278444e-06 4.2074425e-06 2.6833884e-06 2.6833793e-06
000150 e6 1a 3a 36 09 e9 34 36 8d fe 47 36 fa 07 08 36
       2.7731817e-06 2.6957734e-06 2.9801479e-06 2.0270222e-06
000160 e8 8a 39 34 b0 c6 87 36 63 ae c6 36 f7 1c 21 36
       1.7280001e-07 4.046444e-06 5.921161e-06 2.400773e-06
000170 97 61 26 36 19 79 31 36 ad fb de 35 fc 4d 63 36
       2.4792732e-06 2.6445543e-06 1.6613536e-06 3.3871029e-06
000180 f8 ab 3e 36 63 3b 53 36 95 34 6f 36 ab ee 8d 36
       2.8412305e-06 3.1476018e-06 3.5644382e-06 4.229912e-06
000190 99 88 87 35 f3 80 87 35 a6 7c 6f 35 71 45 ce 36
       1.0098039e-06 1.0095813e-06 8.9215825e-07 6.1473625e-06
0001a0 4e 98 8e 36 7f 76 18 37 4a 60 10 37 06 bd bc 36
       4.2496604e-06 9.0874955e-06 8.605488e-06 5.624842e-06
0001b0 f8 b8 bc 36 c3 cf d6 36 d1 1b 57 36 f1 90 20 37
       5.62437e-06 6.4018836e-06 3.2053688e-06 9.57049e-06
0001c0 4a 8f 97 36 bc 1d 16 36 3b 02 7b 37 d8 9e 85 36
       4.5168317e-06 2.236905e-06 1.4961285e-05 3.9822007e-06
0001d0 26 43 64 36 ac e5 dd 36 89 34 00 36 78 fe 1a 37
       3.4013733e-06 6.6130506e-06 1.9104066e-06 9.238363e-06
0001e0 a5 35 15 37 25 90 ca 36 2f a9 3f 36 ad 65 10 36
       8.893582e-06 6.0368498e-06 2.8559696e-06 2.1516855e-06
0001f0 b6 a6 13 36 df 60 bd 37 3f 60 bd 37 39 5d c7 37
       2.2001745e-06 2.2575665e-05 2.2575374e-05 2.3766059e-05
000200 b7 bb 1c 38 de 26 11 38 e9 21 14 38 dd 38 be 37
       3.736812e-05 3.4606892e-05 3.531753e-05 2.2676244e-05
000210 4d 8a 68 37 5c 8b 68 37 54 4f 68 37 42 9b 11 38
       1.3860478e-05 1.3860725e-05 1.3846748e-05 3.471529e-05
000220 6d c0 15 38 c6 69 0c 38 c2 09 02 34 a5 22 96 37
       3.570358e-05 3.347711e-05 1.2110743e-07 1.7897526e-05
000230 5a c9 d2 37 ce 0e 9a 37 b4 f0 da 37 84 bb 56 38
       2.5127712e-05 1.8365125e-05 2.6099711e-05 5.1196213e-05
000240 23 5f f0 37 8d 26 a9 37 86 d0 0d 38 7c 10 f8 37
       2.8654531e-05 2.0164322e-05 3.3811222e-05 2.957158e-05
000250 68 c3 cd 37 e3 b9 73 37 77 2c 86 36 83 2d 86 36
       2.4528897e-05 1.4527209e-05 3.9986876e-06 3.9988095e-06
000260 f2 ef 97 36 bb 77 5d 36 1a 60 37 37 e9 d6 42 37
       4.528084e-06 3.3001259e-06 1.0930025e-05 1.1613339e-05
000270 a8 2e ec 35 53 02 0d 37 6a 03 0d 37 4c 38 0d 37
       1.7596949e-06 8.404796e-06 8.40505e-06 8.417363e-06
000280 f8 ba 41 37 99 ee ea 36 6e 93 31 37 74 b6 da 33
       1.15472285e-05 7.00152e-06 1.0584348e-05 1.0184604e-07
000290 06 d8 c2 35 47 e8 28 37 fe c9 2b 37 72 15 16 37
       1.4516997e-06 1.0067662e-05 1.0239424e-05 8.94569e-06
0002a0 cd 3e 3a 37 ad 31 06 37 58 7a 2c 37 ea 56 37 37
       1.1101086e-05 7.998588e-06 1.0280484e-05 1.0927886e-05
0002b0 83 68 61 37 c7 26 d4 36 a9 c1 5d 36 fe 6b 7a 36
       1.3435379e-05 6.3226066e-06 3.3044291e-06 3.7315763e-06
0002c0 49 70 7a 36 50 40 6f 36 e0 44 43 36 2e 63 14 37
       3.7318262e-06 3.565121e-06 2.9097355e-06 8.8445795e-06
0002d0 86 79 f0 36 9f 9d 0b 36 64 2e 18 37 fd 2c 18 37
       7.1667046e-06 2.0804362e-06 9.070707e-06 9.070381e-06
0002e0 e8 ce 21 37 4c e6 70 36 8d b4 d6 36 3c dd da 36
       9.644522e-06 3.5896837e-06 6.398716e-06 6.5226614e-06
0002f0 fc 90 0d 34 13 ce 05 37 0f fc 4f 36 02 2f 84 36
       1.3184393e-07 7.975398e-06 3.099212e-06 3.939379e-06
000300 93 5e 98 36 90 56 4d 36 5a 8a 96 36 33 89 ad 36
       4.540963e-06 3.0597766e-06 4.4864546e-06 5.171774e-06
000310 7f 77 f0 36 51 ab ed 36 2b 13 94 36 26 78 36 36
       7.1664685e-06 7.0830943e-06 4.412975e-06 2.719005e-06
000320 9e 5e 84 36 d8 5f 84 36 10 c1 9a 36 1a 00 27 37
       3.9449214e-06 3.9450642e-06 4.612033e-06 9.953999e-06
000330 c6 47 d3 36 7c bb 6d 37 37 28 c2 36 7f 7b fa 36
       6.2966456e-06 1.4169953e-05 5.786332e-06 7.4649574e-06
000340 16 7d fa 36 22 b6 e1 36 d2 a2 9e 36 bb b6 6d 37
       7.4651425e-06 6.7267256e-06 4.7277217e-06 1.4168846e-05
000350 ee 7f 9c 36 b7 01 13 33 88 30 9c 36 67 0b 05 37
       4.6640553e-06 3.4227664e-08 4.654812e-06 7.930073e-06
000360 ce 6a a6 36 9c 86 77 36 4b b4 17 37 fe b2 bb 36
       4.959619e-06 3.688422e-06 9.042279e-06 5.5938717e-06
000370 8a 26 7b 37 87 00 0d 37 5f 43 d2 36 e3 28 13 37
       1.4969739e-05 8.404378e-06 6.2663307e-06 8.7714025e-06
000380 9d 60 15 36 4b 31 6d 37 44 31 6d 37 3c 1d 93 37
       2.2258967e-06 1.4137778e-05 1.4137771e-05 1.7537379e-05
000390 86 da bf 37 0f ae 9b 37 45 2c fe 37 77 6a 2a 37
       2.2870732e-05 1.8558492e-05 3.0299774e-05 1.0157578e-05
0003a0 d2 f4 d4 36 ad f4 d4 36 38 ce 37 37 e9 ee ba 37
       6.346593e-06 6.3465764e-06 1.0955664e-05 2.2284179e-05
0003b0 ec db e0 37 ae 58 91 37 a3 67 82 34 79 33 09 37
       2.680529e-05 1.7326642e-05 2.4289793e-07 8.177821e-06
0003c0 c9 50 66 37 69 7e ae 37 df f7 c7 37 09 b5 e0 37
       1.3727878e-05 2.080128e-05 2.3838073e-05 2.6787182e-05
0003d0 80 dc a3 37 7f 42 3c 37 0d 74 42 37 86 31 e4 37
       1.9533793e-05 1.1221156e-05 1.1590321e-05 2.720278e-05
0003e0 08 df c7 37 72 a9 07 37 1c a4 67 34 7c ad 67 34
       2.3826506e-05 8.086079e-06 2.1573254e-07 2.1576665e-07
0003f0 54 de 28 35 a7 17 79 36 7d 9b 40 36 96 53 50 36
       6.2908407e-07 3.7117659e-06 2.8700736e-06 3.1043069e-06

exp_avg f4 [56]
000000 87 ca 7b ad 41 65 6d ae 9e bb 15 af 2a 47 5c 2e
       -1.4312668e-11 -5.3977493e-11 -1.3618126e-10 5.0085415e-11
000010 2e 14 b8 2d e0 2e ba 2d 39 d0 06 2f f2 27 83 2e
       2.092734e-11 2.1166568e-11 1.2261205e-10 5.964286e-11
000020 d6 e6 05 2e 96 ee 86 2e 4a 5d 4a ad d0 9b 91 ad
       3.0445722e-11 6.135996e-11 -1.1503085e-11 -1.6553786e-11
000030 24 57 76 2e 2a 9d cc 2e 36 4b cb 2e 81 a7 f5 2d
       5.601132e-11 9.304764e-11 9.2447314e-11 2.7927662e-11
000040 c1 70 88 ae a6 65 06 af 0b ed bd 2e e5 a5 82 2d
       -6.204593e-11 -1.2223342e-10 8.636832e-11 1.4852961e-11
000050 a3 aa ac 2b 8c 48 2f 2f a9 90 09 2e 55 eb c6 ad
       1.2268696e-12 1.5941931e-10 3.1278678e-11 -2.2614502e-11
000060 21 16 39 af 5c 33 f5 ac b5 b5 dd 2e f1 9c fa ad
       -1.6833514e-10 -6.969021e-12 1.0082194e-10 -2.8491405e-11
000070 fe 07 7b ae 78 5d 59 af e9 0c 37 2f da 33 58 af
       -5.707789e-11 -1.9769242e-10 1.664834e-10 -1.9663507e-10
000080 95 e6 d2 2e b9 86 15 2e ac d1 78 2e 9f b5 ce 2d
       9.590654e-11 3.3998335e-11 5.6574898e-11 2.3500145e-11
000090 4e 4e d2 ac 39 e4 86 af 9a b2 bb ae a5 d0 2c 2f
       -5.9772525e-12 -2.453662e-10 -8.5355015e-11 1.5717434e-10
0000a0 68 15 7b ae f4 d0 1f ad 38 1e 72 ab f2 b9 ab ae
       -5.7089805e-11 -9.0845005e-12 -8.601761e-13 -7.80921e-11
0000b0 b1 45 99 ad ee c7 ea ad 51 25 61 2d 00 a4 6b aa
       -1.7425035e-11 -2.6691507e-11 1.2798055e-11 -2.0929092e-13
0000c0 c8 36 0b aa 68 2f eb ae b6 1b 06 ae b2 1d 2b af
       -1.2364686e-13 -1.0694984e-10 -3.0492685e-11 -1.5562909e-10
0000d0 ba db 02 2f 7c bc 84 ac 3e 1d 2d 2e 19 d6 79 af
       1.1901494e-10 -3.7725916e-12 3.9361618e-11 -2.2722481e-10

exp_avg_sq f4 [56]
000000 b4 2f ca 24 14 d5 2a 28 ce fa ac 28 36 70 12 27
       8.768435e-17 9.4831e-15 1.9204605e-14 2.03224e-15
000010 26 c8 3e 26 ff b6 bb 24 f1 42 23 28 bb cf 3b 27
       6.6190744e-16 8.140833e-17 9.062833e-15 2.6064074e-15
000020 3b a9 00 27 ca 2d bd 27 4f 0f 16 26 99 58 3b 26
       1.7855308e-15 5.2507683e-15 5.206245e-16 6.499873e-16
000030 d7 57 31 28 b7 97 a2 28 2b 06 a0 28 98 4d 06 24
       9.844521e-15 1.8051409e-14 1.7766243e-14 2.9122343e-17
000040 2c 21 e2 27 f7 ae ec 28 ae 0a dd 27 79 54 d9 25
       6.2763566e-15 2.6277142e-14 6.13514e-15 3.770074e-16
000050 07 77 67 22 20 62 72 28 94 f7 57 27 20 4a 77 27
       3.136935e-18 1.3454976e-14 2.9971456e-15 3.431832e-15
000060 da c6 e6 28 f8 e2 f4 24 5b c7 24 28 d9 64 30 27
       2.5621368e-14 1.0620263e-16 9.147057e-15 2.4479576e-15
000070 fd 80 82 27 8d 44 bb 28 02 50 82 28 11 36 ee 22
       3.6222098e-15 2.07909e-14 1.4467597e-14 6.4567274e-18
000080 cd 29 29 28 df 38 30 27 6a 2a b6 27 4d ac ac 27
       9.390449e-15 2.4455736e-15 5.0561133e-15 4.79264e-15
000090 60 5d b2 24 3c e8 cd 28 30 0b a7 28 d7 83 e3 28
       7.735338e-17 2.2860288e-14 1.8545576e-14 2.5259239e-14
0000a0 9b 54 82 27 d1 51 d7 25 46 2f 83 26 61 fa a4 28
       3.6173978e-15 3.7351996e-16 9.102765e-16 1.8316242e-14
0000b0 c8 2f da 25 61 7a b3 26 b9 01 2f 27 eb 73 d2 23
       3.784935e-16 1.2453791e-15 2.4287063e-15 2.2817339e-17
0000c0 b0 fd ba 22 0f 76 ea 28 f3 ab 44 28 7f 89 82 28
       5.0684003e-18 2.6030419e-14 1.0917471e-14 1.4492529e-14
0000d0 ba 89 24 28 7b ea d2 26 4a a4 a3 27 6f 40 c6 28
       9.1336935e-15 1.4635233e-15 4.541971e-15 2.201036e-14
